…
+   # Outputs from dense layer are projected onto 10 unit output layer
+   layer_dense(10)
> # Kompilowanie modelu
> model %>% compile(
+   loss = "categorical_crossentropy",
+   optimizer = optimizer_adam(),
+   metrics = "accuracy"
+ )
> # Informacje o modelu
> summary(model)
Model: "sequential_13"
________________________________________________________________________________________________
 Layer (type)                              Output Shape                          Param #        
================================================================================================
 dense_56 (Dense)                          (None, 32, 32, 256)                   1024           
 dropout_50 (Dropout)                      (None, 32, 32, 256)                   0              
 dense_55 (Dense)                          (None, 32, 32, 128)                   32896          
 dropout_49 (Dropout)                      (None, 32, 32, 128)                   0              
 dense_54 (Dense)                          (None, 32, 32, 64)                    8256           
 dropout_48 (Dropout)                      (None, 32, 32, 64)                    0              
 flatten_9 (Flatten)                       (None, 65536)                         0              
 dense_53 (Dense)                          (None, 10)                            655370         
================================================================================================
Total params: 697,546
Trainable params: 697,546
Non-trainable params: 0
________________________________________________________________________________________________

> # Trenowanie modelu
> # epochs=10 by zaoszczedzic czas (trenowanie trwa bardzo dlugo)
> history <- model %>%
+   fit(X_train, y_train, epochs = 10, batch_size = 32,
…
